saved_models/new_yolo.pt (torch, 301004 bytes, 175 tensors)

weight f2 [8, 3, 3, 3]
00000000: 7232 15ae feb6 96b6 2db7 991d eca2 2837
00000010: 4939 fc33 c4b3 3ab5 34b7 f4b7 51af fd9a
00000020: 0a36 423a 552d 43b4 4cb3 58b0 abb6 c52d
00000030: f0a8 3935 b03a e5b8 e4b5 073a 6eb2 d2b2
00000040: 0f35 f535 60b2 4fb7 69b8 cbae 043b 07aa
00000050: b4b5 7035 ba37 b4b3 b5b6 50b8 aeb0 373b
00000060: bcb2 f3b5 5838 0739 529e 49b4 d92d 7bb4
00000070: 37b6 f730 fa2c c7b5 0632 cc36 b3b0 c426
00000080: 15ad 18b7 c634 b433 26b1 7134 fb32 daae
00000090: 6f29 b9a7 49b4 2737 8533 c6b6 fc2f cc33
000000a0: 9cb2 c936 7438 ebb4 cf38 8c24 a5b8 15af
000000b0: 6db5 efb2 5135 1938 959d 1339 10b0 54b9
000000c0: 662b ebb5 00b4 4f31 b638 a2a2 dd37 5b1a
000000d0: c1b9 44a8 51b8 f2b3 022d 91ad f2aa 6b2c
000000e0: bbb6 a1b1 1039 962f 2bb0 222e a1ad a12b
000000f0: 4728 d9b4 c0b6 c438 472e 1cb2 9d29 61b2
00000100: 9ca9 c3b1 9db5 c5b4 5c36 2134 1a29 6e2d
00000110: 80aa 5f2a 3123 dd18 ff33 152c 2826 612b
00000120: 14ab 75b0 eb31 e1a5 51b2 a7aa d1b2 acb4
00000130: 6c28 6132 1629 b9ae a62d ecb3 de29 a8af
00000140: abb1 9228 8ab1 09b2 332b 2cab f1b1 9b2f
00000150: f4b2 18b0 2b33 90ad d92f ba30 f6b2 ca1d
00000160: 1a28 66b0 5426 b2ac ed1b b2ac b532 b1a0
00000170: 64a5 572f 79ae e7b0 dfac 1032 6d34 2639
00000180: 3eb4 9ea3 a92f c4b4 d3b6 15b4 9ba1 4130
00000190: 3e38 f1a6 feb0 e22f dab4 6cb2 0fb6 c533
000001a0: 6a32 5d38 8bb0 5eab 4234 b6b3 33b5 b0b4
0.2014 -0.09503 -0.437 -0.4116 -0.4485 0.005466 -0.01352 0.4473
0.6606 0.2495 -0.2427 -0.3267 -0.4502 -0.497 -0.1143 -0.003412
0.3774 0.782 0.0833 -0.2664 -0.228 -0.1357 -0.4167 0.09015
-0.03857 0.3264 0.836 -0.612 -0.3682 0.7534 -0.2009 -0.2131
0.3162 0.3723 -0.1992 -0.4568 -0.5513 -0.10614 0.877 -0.0471
-0.3564 0.3398 0.483 -0.2407 -0.4192 -0.539 -0.1462 0.902
-0.2104 -0.3718 0.543 0.6284 -0.006172 -0.2678 0.0914 -0.28
-0.3884 0.1552 0.07776 -0.361 0.1882 0.4248 -0.1469 0.02643
-0.0794 -0.4434 0.2983 0.2407 -0.1609 0.2776 0.2181 -0.10706
0.04245 -0.03017 -0.2678 0.447 0.235 -0.4233 0.12476 0.2437
-0.2065 0.424 0.5566 -0.3074 0.601 0.01776 -0.5806 -0.11066
-0.339 -0.2167 0.3323 0.512 -0.00545 0.6343 -0.127 -0.666
0.0578 -0.3699 -0.25 0.1659 0.589 -0.012955 0.4915 0.003103
-0.719 -0.03333 -0.5396 -0.2483 0.07825 -0.087 -0.05426 0.06903
-0.4207 -0.1759 0.633 0.1185 -0.1302 0.0958 -0.08795 0.0596
0.03342 -0.303 -0.4219 0.5957 0.0981 -0.1909 0.04385 -0.1993
-0.04382 -0.18 -0.3508 -0.298 0.3975 0.258 0.03986 0.08484
-0.05078 0.04977 0.014046 0.002375 0.2499 0.0638 0.02405 0.05765
-0.0553 -0.1393 0.1849 -0.02296 -0.1974 -0.05197 -0.213 -0.292
0.03455 0.1993 0.03973 -0.10504 0.08826 -0.2476 0.04584 -0.1196
-0.1771 0.0357 -0.1731 -0.1886 0.05624 -0.05603 -0.1857 0.11884
-0.2173 -0.1279 0.224 -0.0869 0.1226 0.1477 -0.2175 0.005653
0.03204 -0.1375 0.02472 -0.07336 0.00387 -0.07336 0.2096 -0.00916
-0.02106 0.1147 -0.10114 -0.1532 -0.0761 0.1895 0.2766 0.6436
-0.2651 -0.01488 0.1197 -0.2979 -0.4265 -0.2551 -0.01095 0.1329
0.5303 -0.02711 -0.156 0.12317 -0.3032 -0.2007 -0.3787 0.2428
0.2004 0.5454 -0.142 -0.05756 0.266 -0.241 -0.325 -0.293

weight f2 [8]
00000000: 4b3f 1c3f 163d ca40 453d 823b d63b 9d3f
1.823 1.777 1.271 2.395 1.317 0.9385 0.9795 1.903

bias f2 [8]
00000000: 25b0 5bb6 8a35 31b9 1a39 3433 b52e 54ae
-0.1295 -0.3972 0.3462 -0.649 0.6377 0.2251 0.1048 -0.0989

running_mean f2 [8]
00000000: 74a5 48ab c430 08b0 dfb3 27b4 5ab7 3bae
-0.0213 -0.0569 0.1489 -0.126 -0.246 -0.2595 -0.4595 -0.09735

running_var f2 [8]
00000000: 3e2a e127 842b 2830 3d2a c623 5c2a ec2d
0.04877 0.03078 0.05872 0.1299 0.04874 0.01518 0.04968 0.0925

weight f2 [16, 8, 3, 3]
00000000: 43aa 7f21 f527 d228 8a2e fa30 83b5 5ab5
00000010: 90b2 9dab 6cad 9a25 882c b7b1 51ae b22e
00000020: 572f d7a4 5eac 4ab0 3ba9 efaf d729 5f31
00000030: 60a4 6bae 13af 54ac faad 1cae 69b0 b3b5
00000040: a1b3 f528 57b1 78b2 152b 18ac b8af 7128
00000050: 1baf b6a5 0f2d 87af 51b2 44a7 ef24 eb29
00000060: 241e bbae 74b0 de1e c330 07a1 96a8 28a4
00000070: 58ae 942d bda8 71b0 e12b f622 0819 e82a
00000080: 8423 0920 ba1b e52f 02ac bdaa 8930 9630
00000090: 77a6 1c34 0531 8827 ac34 0234 0527 5e30
000000a0: d22c bd28 f0aa ecac 1fab 5ca8 d6a3 0f21
000000b0: 7b9f e9a4 79a5 70b1 d7b0 b0b5 6db5 9ab5
000000c0: 8db5 a9b0 ae1d fe20 f22c 5130 6031 8b34
000000d0: a131 f32d d931 5f2f 592e ea17 032f 7eb1
000000e0: 63b1 65b0 4cb1 69b1 6aac 5030 a62d db30
000000f0: 4130 2e30 d530 ec30 512c 0a24 a82d 9231
00000100: 7b29 3924 302c cc2b 2396 cf2e 6522 d8ad
00000110: c2af 05ad edb3 7ab1 9bb0 66b2 c8af 2e2a
00000120: 05b1 6cb2 9cb3 b8b1 6db1 98b7 772b 63a9
00000130: 0cb7 a7a9 702a c02c 2825 a0a5 2a2f c92f
00000140: c223 47a9 64aa c22c 212e 6eb1 8d30 ce28
00000150: 9620 8725 ed2c a7af 84a5 d01a 76b0 9cb3
00000160: bab0 5128 ecac 0aaa c427 9f22 ed2c 79af
00000170: 5c2c b533 9fac 182e 5034 bcaf 301d 3327
00000180: 9bac 7425 c3a1 f6a3 182e fb2b e3a8 a1ad
00000190: dab0 9222 121f fd29 142a a0a8 2ba6 0729
000001a0: 112d c4b2 dfae 49ad dbb2 8b2c b6b0 68b4
000001b0: f3b2 56b5 5daf 18b4 0fb4 40ae 6fb0 b4b1
000001c0: b1ac e930 112d 1425 9530 c330 2994 13ad
000001d0: b52c bea4 1f30 042e f42f d430 2db0 462f
000001e0: 8c2e ec30 06b1 66ac b4b0 df2e 42ad 64b4
000001f0: b3b4 76ae 7eb0 16b5 9130 272c 9530 1234
-0.04892 0.010735 0.03108 0.03766 0.1022 0.1555 -0.3445 -0.3345
-0.2051 -0.05948 -0.0847 0.02188 0.0708 -0.1786 -0.0987 0.1046
0.1147 -0.0189 -0.06824 -0.134 -0.04086 -0.12396 0.04562 0.1678
-0.01709 -0.1003 -0.11053 -0.0676 -0.0934 -0.09546 -0.1378 -0.3562
-0.2384 0.03873 -0.1669 -0.2021 0.05533 -0.06396 -0.1206 0.0347
-0.111 -0.02231 0.07904 -0.1176 -0.1974 -0.02838 0.01927 0.04623
0.005997 -0.10516 -0.1392 0.006706 0.1488 -0.00982 -0.03583 -0.01624
-0.0991 0.08716 -0.03702 -0.1388 0.06155 0.013596 0.002457 0.05396
0.01468 0.00788 0.003773 0.12335 -0.0626 -0.05264 0.1417 0.1433
-0.02525 0.2568 0.1569 0.02942 0.292 0.2505 0.02742 0.1365
0.0753 0.03702 -0.0542 -0.0769 -0.05563 -0.03406 -0.015305 0.00988
-0.007305 -0.01918 -0.02138 -0.1699 -0.1512 -0.3555 -0.339 -0.35
-0.347 -0.1456 0.005547 0.00975 0.0773 0.1349 0.168 0.284
0.1759 0.09296 0.1827 0.1152 0.0992 0.001932 0.10956 -0.1716
-0.1683 -0.1373 -0.1655 -0.1691 -0.069 0.1348 0.08826 0.1517
0.1329 0.1306 0.151 0.1538 0.06744 0.01578 0.0884 0.1741
0.04282 0.0165 0.0654 0.0609 -0.001498 0.1064 0.01249 -0.0913
-0.1212 -0.0784 -0.2477 -0.1711 -0.1439 -0.2 -0.1216 0.04828
-0.1569 -0.2007 -0.2378 -0.1787 -0.1696 -0.4746 0.05832 -0.04208
-0.4404 -0.04416 0.0503 0.0742 0.02014 -0.02197 0.11194 0.12164
0.01515 -0.04123 -0.04993 0.07434 0.09576 -0.1697 0.1422 0.03754
0.00896 0.02159 0.07697 -0.11957 -0.02155 0.003326 -0.1394 -0.2378
-0.1477 0.03372 -0.0769 -0.04718 0.03033 0.01293 0.07697 -0.11676
0.0681 0.2408 -0.0722 0.0952 0.2695 -0.12085 0.005066 0.02812
-0.07196 0.0213 -0.01125 -0.01555 0.0952 0.06235 -0.03818 -0.08795
-0.1516 0.01283 0.006905 0.04678 0.0475 -0.03613 -0.0241 0.03928
0.07916 -0.2114 -0.10736 -0.0826 -0.2142 0.071 -0.1472 -0.2754
-0.2172 -0.3335 -0.11505 -0.2559 -0.2537 -0.09766 -0.1385 -0.1782
-0.0733 0.1534 0.07916 0.01984 0.1432 0.1488 -0.001016 -0.0793
0.07355 -0.01852 0.1288 0.094 0.12427 0.1509 -0.1305 0.11365
0.1023 0.1538 -0.157 -0.0687 -0.147 0.10736 -0.08215 -0.2744
-0.2937 -0.10095 -0.1404 -0.3179 0.1427 0.0649 0.1432 0.2544

weight f2 [16]
00000000: af3b 8639 073c ff3a c93c 9f3a 6d3c ca3b
00000010: b73b 7a3b 523d ee3b 913c af3c 7f3b d23c
0.9604 0.6904 1.007 0.8745 1.196 0.8276 1.106 0.9736
0.9644 0.9346 1.33 0.991 1.142 1.171 0.937 1.205

bias f2 [16]
00000000: 4731 5335 7d31 ab33 c8a8 5b2e a4a0 44a1
00000010: 712f 1929 efae 60a6 1134 4234 3528 e6b2
0.1649 0.3328 0.1715 0.2396 -0.03735 0.0993 -0.00906 -0.010284
0.1163 0.03983 -0.10834 -0.0249 0.2542 0.266 0.03287 -0.2156

running_mean f2 [16]
00000000: deb9 28b8 89b6 c639 5fb6 1a3e 46b7 6637
00000010: a4bb f1a4 8fb4 e8b6 18bd d934 cc3a 6a31
-0.7334 -0.5195 -0.4084 0.7217 -0.3982 1.525 -0.4546 0.4624
-0.955 -0.0193 -0.285 -0.4316 -1.273 0.303 0.8496 0.1692

running_var f2 [16]
00000000: a541 833d 1541 f740 4c41 8442 6e41 9f41
00000010: 363f 7e41 5c43 ba3f c342 f443 2b40 2e40
2.822 1.378 2.541 2.482 2.648 3.258 2.715 2.81
1.803 2.746 3.68 1.932 3.38 3.977 2.084 2.09

weight f2 [8, 16, 1, 1]
00000000: adb1 4433 e4ab f635 3fb5 08af bb2f 62ae
00000010: 6433 44ad f12c 312c 2636 e7b6 2930 76ac
00000020: d724 4130 f227 4caa 86b0 2234 4e29 bb35
00000030: 6333 2c30 3a34 f8ad 60af dbb4 5f23 7b31
00000040: b6a3 9aad b526 ea34 5ca4 c0b3 eb34 93b4
00000050: e4ad 6f31 de33 50b0 ed37 7235 9c34 172d
00000060: 4e36 eea8 f5ad cc32 68b5 5bb4 d8ac 0fb6
00000070: 4cb2 98ae 6a36 05ad 0136 1db5 22b0 2d35
00000080: d3a8 08b5 5733 7231 5a2e 4ab4 49b0 142f
00000090: 90af 8db1 4330 f9b5 f3ae e230 3fb3 2329
000000a0: 9130 abb5 2a35 e237 7327 fc2a d9b4 02b1
000000b0: dbb0 29b2 d731 9f30 1fad ccb3 e8b3 fcb2
000000c0: 77b2 7bb7 3937 6935 d729 3ba5 afa0 dd31
000000d0: f431 7134 87af 92b3 31b6 f730 612c 1125
000000e0: 7a31 fe2f 8428 b634 a834 e42e be26 31b4
000000f0: ab31 8d30 f234 9f2e b135 dead 662f 3a2e
-0.1774 0.227 -0.06165 0.3726 -0.328 -0.10986 0.1208 -0.09973
0.231 -0.0823 0.0772 0.0655 0.3843 -0.4314 0.13 -0.0697
0.0189 0.1329 0.03104 -0.0492 -0.1414 0.2583 0.04144 0.3582
0.2308 0.1304 0.2642 -0.09326 -0.11523 -0.3035 0.0144 0.1713
-0.01506 -0.0875 0.0262 0.3071 -0.01703 -0.2422 0.3074 -0.286
-0.09204 0.1698 0.2458 -0.1348 0.4954 0.3403 0.288 0.0795
0.394 -0.0385 -0.0931 0.2124 -0.338 -0.2722 -0.0757 -0.3787
-0.1968 -0.103 0.401 -0.0784 0.3752 -0.3196 -0.1292 0.3235
-0.0377 -0.3145 0.2294 0.1702 0.09924 -0.268 -0.1339 0.1106
-0.11816 -0.1735 0.1332 -0.3733 -0.1086 0.1526 -0.2264 0.04013
0.1427 -0.3542 0.3228 0.4927 0.0291 0.05457 -0.303 -0.1565
-0.1517 -0.1925 0.1825 0.1444 -0.08 -0.2437 -0.2471 -0.2183
-0.202 -0.4675 0.4514 0.3381 0.04562 -0.02043 -0.00915 0.1832
0.186 0.2776 -0.1176 -0.2366 -0.387 0.1552 0.0684 0.01979
0.1711 0.1249 0.03528 0.2944 0.291 0.10767 0.02634 -0.262
0.1771 0.1422 0.309 0.10345 0.3557 -0.0917 0.1156 0.0973

weight f2 [8]
00000000: 453a da38 173b ba3b 5d3b ae3b 4f3a 203a
0.7837 0.6064 0.886 0.966 0.9204 0.96 0.7886 0.7656

bias f2 [8]
00000000: 60b1 a71d 8232 8b36 872c 259c 7b2c f8af
-0.168 0.00552 0.2034 0.409 0.07074 -0.004047 0.07 -0.1245

running_mean f2 [8]
00000000: 082d 242e 1c37 c4aa daaf b7ae 3729 bf37
0.0786 0.09595 0.4443 -0.05286 -0.1227 -0.1049 0.04074 0.4841

running_var f2 [8]
00000000: ae31 a732 eb33 7f36 8432 2a33 1034 e632
0.1775 0.2079 0.2474 0.406 0.2036 0.2239 0.254 0.2156

weight f2 [8, 16, 1, 1]
00000000: 452f 42b3 0c33 faae 1a22 f8b5 6334 7dad
00000010: ccb1 cd2d 1cb2 9133 c0a4 fd2c c6af 52b3
00000020: 70ae 0bb3 47a6 d128 1bac c0b2 57af 7425
00000030: 5232 8c31 69b0 d018 b925 bc33 c1b5 2722
00000040: 63ac a8ac 5124 4cb0 3f31 cfae ab31 08ad
00000050: c4b0 81a0 5237 0bb4 3f33 b7ad e42a d230
00000060: f9b3 9434 b130 c7b2 22b5 782a df2c 1d32
00000070: 6737 96b0 6db2 20b0 06b0 85ad dcb4 eeb6
00000080: e923 5735 c7b3 59b4 3e2f e5b3 4fa0 20b6
00000090: 70b4 f52d 7eb1 fbaf 5baf 30af ad2b 10b1
000000a0: e530 1c24 9ea8 bc27 c334 f12e 47b0 1da4
000000b0: 7b21 93a9 d0b4 a133 4e36 40b5 eeb3 7cb4
000000c0: e6ad 83ac 0537 4c2e 1fb1 49b5 6530 aa2d
000000d0: 2f28 d533 66aa 6734 3db0 96b0 8fad 36b1
000000e0: 35b6 0aaa ec27 b233 28b7 7a28 87b6 3e2a
000000f0: d52b e0b3 3dac 27b3 93a9 b9b5 04b6 3235
0.1136 -0.2268 0.2202 -0.109 0.01192 -0.373 0.2742 -0.08575
-0.1812 0.09064 -0.1909 0.2365 -0.01855 0.07794 -0.12146 -0.2288
-0.1006 -0.2201 -0.02452 0.03763 -0.06415 -0.2109 -0.1147 0.0213
0.1975 0.1733 -0.1378 0.00235 0.02235 0.2417 -0.3596 0.01202
-0.06854 -0.07275 0.01686 -0.1343 0.164 -0.1064 0.1771 -0.0786
-0.1489 -0.0088 0.4575 -0.2527 0.2264 -0.0893 0.05383 0.1506
-0.2491 0.2861 0.1466 -0.2118 -0.3208 0.05054 0.0761 0.191
0.4626 -0.1433 -0.2008 -0.1289 -0.1257 -0.08624 -0.3037 -0.433
0.01545 0.3337 -0.243 -0.2717 0.11316 -0.2467 -0.008415 -0.3828
-0.2773 0.0931 -0.1716 -0.1247 -0.1149 -0.1123 0.05997 -0.1582
0.153 0.01605 -0.03607 0.03021 0.2976 0.10846 -0.1337 -0.01607
0.010704 -0.04355 -0.3008 0.2384 0.394 -0.3281 -0.2478 -0.2803
-0.09216 -0.0705 0.4387 0.0984 -0.16 -0.3303 0.1373 0.0885
0.03268 0.2448 -0.05 0.2751 -0.1324 -0.1433 -0.08685 -0.1628
-0.388 -0.04718 0.03094 0.2405 -0.4473 0.03497 -0.408 0.04877
0.0612 -0.2461 -0.0662 -0.2235 -0.04355 -0.3577 -0.376 0.3247

weight f2 [8]
00000000: c93b 193c 2f3c 973b 3b3c a53c 803c 233c
0.973 1.024 1.046 0.9487 1.058 1.161 1.125 1.034

bias f2 [8]
00000000: 9234 d831 3132 2c36 c830 ff25 de2d 3c33
0.2856 0.1826 0.1935 0.3857 0.1494 0.02342 0.0917 0.2261

running_mean f2 [8]
00000000: 81ad 88ac e12a 8fb1 fdb4 ee9a b2a0 66b7
-0.086 -0.0708 0.05374 -0.1737 -0.3118 -0.003384 -0.00917 -0.4624

running_var f2 [8]
00000000: 1631 ca31 5c2e c731 b032 6a31 4030 f132
0.1589 0.1809 0.09937 0.1805 0.209 0.1692 0.1328 0.2169

weight f2 [16, 16, 1, 1]
00000000: be31 9a33 c02d de2e a830 0c36 0a9e 86ab
00000010: 6f2e a52f d1b0 bbb5 0334 8c30 252f dea4
00000020: 29af 9fb5 40b7 712c 4234 1432 8eb6 d02e
00000030: 4ab1 34b5 3e1e ca34 63b4 7db1 2a21 fd2f
00000040: bc32 79b4 9632 8b35 9a23 a8b3 f1ac 4a2c
00000050: ce22 fe2f a1b2 fd35 b632 e724 f6a0 0c2a
00000060: 6fb1 1033 c6b5 04b5 5e35 c4ae 4c2a cdb6
00000070: 36b7 18ae 9a2d f7b4 272f 73b0 0bb3 c536
00000080: adb1 f830 5e2d 3c29 e7a4 9ab0 8eb1 0635
00000090: 6e2c cc33 ddaf 51ae 3f2e 8fb4 7631 3db0
000000a0: 3eac 9ab3 a631 c0b4 c4b0 aaad 3b2e 1531
000000b0: 94ac 7aac 6e2b 2db1 b634 d4ae 8a2e 4ab5
000000c0: 4f29 15ac 49b0 542e 66b2 90ab 7732 27af
000000d0: 109e 8eb4 94b0 f634 c635 5231 819b 9ab2
000000e0: 1ab0 19b2 6fac 6734 452f 9c31 ddb4 1db0
000000f0: 292d 5130 2c30 fb1e 3cb4 c2b4 2caa c630
00000100: 692e c6b2 d9af 7f31 e6ad 2ab2 55b0 deaf
00000110: 52b5 d824 07ae dba7 8234 8eb8 24b6 8d2b
00000120: 66ab c8b0 01b2 d2b1 d120 f130 7f30 4e36
00000130: cab1 85b3 302e e92d a332 132b dcaf 1a19
00000140: 81ad 39ad 9fa4 26b2 d2a7 3aaa ccae 6d35
00000150: 4a36 7433 4d2d 44a6 e629 6722 302e a8a9
00000160: 4caf 1dab d0b4 2e34 562a 4030 e8b4 56b3
00000170: 0fb2 1d2a 1eb8 9333 a5ad 7934 262f d535
00000180: 6533 7831 6b93 58b4 42ac ddad fcac 9db0
00000190: 1db3 8ab5 5f9d 1325 feb2 dc21 32b1 5eb5
000001a0: 46b5 a3ae df32 2eb0 2d2c a934 a0a5 9035
000001b0: eea5 862c e0b1 e325 01ad e9b0 9933 fe23
000001c0: 8f33 e5b4 e5a1 b9b4 74af 9a2c 1430 d723
000001d0: f131 bc33 d2b2 cd2c 29b4 592c 9536 832f
000001e0: 98b4 71b3 4720 7632 322c 6eb1 6135 862f
000001f0: 2fab a522 0618 cbb4 bea4 25b4 d423 29aa
0.1794 0.2375 0.08984 0.1073 0.1455 0.378 -0.005898 -0.05878
0.1005 0.11945 -0.1505 -0.3582 0.2507 0.1421 0.11163 -0.01901
-0.1119 -0.3513 -0.4531 0.0694 0.266 0.19 -0.4097 0.10645
-0.1653 -0.3252 0.006096 0.2993 -0.2742 -0.1715 0.010086 0.1248
0.2104 -0.2795 0.2058 0.3464 0.01485 -0.2393 -0.0772 0.067
0.01329 0.1249 -0.2072 0.3743 0.2097 0.01915 -0.00969 0.04724
-0.1698 0.2207 -0.3608 -0.3135 0.3354 -0.1057 0.0492 -0.425
-0.4507 -0.0952 0.0875 -0.3103 0.11176 -0.139 -0.2201 0.423
-0.1774 0.1553 0.08386 0.0409 -0.01915 -0.1438 -0.1736 0.314
0.0692 0.2437 -0.12286 -0.0987 0.0976 -0.285 0.1707 -0.1324
-0.0663 -0.2375 0.1765 -0.2969 -0.1489 -0.0885 0.09735 0.1588
-0.07153 -0.06995 0.05804 -0.1617 0.2944 -0.1067 0.1022 -0.3306
0.04147 -0.0638 -0.1339 0.0989 -0.2 -0.05908 0.202 -0.11176
-0.00592 -0.2847 -0.1431 0.31 0.3608 0.1663 -0.003664 -0.2063
-0.1282 -0.1906 -0.0693 0.2751 0.1136 0.1753 -0.304 -0.1285
0.0806 0.1349 0.1304 0.006817 -0.2646 -0.2974 -0.04822 0.1492
0.10016 -0.2117 -0.1226 0.1718 -0.09216 -0.1926 -0.1354 -0.1229
-0.3325 0.01892 -0.0942 -0.03069 0.2817 -0.5693 -0.3838 0.059
-0.0578 -0.1494 -0.1876 -0.1819 0.00941 0.1544 0.1405 0.394
-0.1809 -0.235 0.0967 0.09235 0.2074 0.05527 -0.1228 0.002491
-0.086 -0.0816 -0.01805 -0.1921 -0.03055 -0.04865 -0.1062 0.339
0.393 0.2329 0.0828 -0.02448 0.04608 0.012505 0.0967 -0.0442
-0.114 -0.05557 -0.3008 0.2612 0.0495 0.1328 -0.3066 -0.2292
-0.1893 0.04776 -0.5146 0.2367 -0.0882 0.2795 0.1117 0.3645
0.2311 0.1709 -0.0009055 -0.2715 -0.0665 -0.0916 -0.0779 -0.1442
-0.2223 -0.3462 -0.005245 0.01982 -0.2185 0.011444 -0.1624 -0.3354
-0.3296 -0.1037 0.2147 -0.1306 0.06525 0.2913 -0.02197 0.3477
-0.02316 0.0707 -0.1836 0.023 -0.0782 -0.1534 0.2374 0.01561
0.2362 -0.306 -0.01151 -0.2952 -0.11646 0.0719 0.1274 0.01531
0.1857 0.2417 -0.2131 0.075 -0.26 0.06793 0.4114 0.1174
-0.287 -0.2325 0.008354 0.2019 0.06555 -0.1697 0.3362 0.11755
-0.05612 0.01298 0.001965 -0.2996 -0.01852 -0.259 0.01529 -0.04813

weight f2 [16]
00000000: 6d3a 4d3c 443c c23b 733c 1d3c d73b b63c
00000010: cf3c 513a 343c 433c ac3b ef3b df3b 493c
0.803 1.075 1.066 0.9697 1.112 1.028 0.98 1.178
1.202 0.7896 1.051 1.065 0.959 0.9917 0.984 1.071

bias f2 [16]
00000000: ae93 74a1 a32d 26a0 802b 7aaa 1133 df1e
00000010: 2133 df2c 3f31 7030 a72a a313 9f31 6fab
-0.0009375 -0.01065 0.0881 -0.0081 0.0586 -0.0506 0.2208 0.00671
0.2228 0.0761 0.164 0.1387 0.05197 0.000932 0.1757 -0.05807

running_mean f2 [16]
00000000: 8c37 f0b6 9435 deb8 f829 70b5 b523 8fa5
00000010: 52b8 74aa 292d 42ae f2b8 f030 c0ab c2aa
0.4717 -0.4336 0.3486 -0.6084 0.04663 -0.3398 0.01505 -0.02171
-0.54 -0.0504 0.0806 -0.0978 -0.618 0.1543 -0.06055 -0.0528

running_var f2 [16]
00000000: a831 bf34 d233 0f36 ca34 e933 c635 ec34
00000010: dc36 0934 f131 2038 8533 f732 6137 ae35
0.1768 0.2966 0.2444 0.3787 0.2993 0.2472 0.3608 0.3076
0.4287 0.2522 0.1857 0.5156 0.235 0.2177 0.4612 0.355

weight f2 [8, 8, 1, 1]
00000000: f52d 1cb5 b72e 8db9 7a31 c2ab 3d35 f71b
00000010: b0ac d9b4 9b31 fb29 3f33 4cb1 40b6 cfb1
00000020: ab9f 1dab c234 8b31 bb34 ba9c e6af a7a7
00000030: 622b 96b5 9fb1 27a6 f4b5 7534 e2ad bbb0
00000040: 5333 99ac c52f bb38 4cb0 7133 8fb0 2c34
00000050: e6b2 3cb1 44af 0433 a533 9234 822b 5431
00000060: 49b1 4834 91b6 5db5 002e b732 2f33 b39b
00000070: ab36 ac2e 29b4 daaf cbb5 1db4 6ab2 3d26
0.0931 -0.3193 0.1049 -0.694 0.1711 -0.0606 0.3274 0.00389
-0.07324 -0.303 0.1752 0.04672 0.2264 -0.1655 -0.3906 -0.1815
-0.00749 -0.05557 0.2974 0.1732 0.2957 -0.004616 -0.1234 -0.02989
0.05768 -0.349 -0.1757 -0.02403 -0.372 0.2786 -0.0919 -0.1478
0.2289 -0.07184 0.1214 0.5913 -0.1343 0.2325 -0.1425 0.2607
-0.2156 -0.1636 -0.1135 0.2192 0.2389 0.2856 0.05865 0.1665
-0.1652 0.2676 -0.4104 -0.3352 0.09375 0.2098 0.2245 -0.00376
0.4167 0.10425 -0.26 -0.1227 -0.362 -0.257 -0.2004 0.02437

weight f2 [8]
00000000: 613c 243c 643c 373c 043c e73a fe3b 123c
1.095 1.035 1.098 1.054 1.004 0.863 0.999 1.018

bias f2 [8]
00000000: 3aa9 1235 7133 a813 7eb4 f631 702c a023
-0.04083 0.317 0.2325 0.0009346 -0.2808 0.1863 0.06934 0.01489

running_mean f2 [8]
00000000: e9b2 dea1 fe31 51b0 c334 1d31 c4b0 e6b3
-0.216 -0.01146 0.1873 -0.1349 0.2976 0.1598 -0.1489 -0.2468

running_var f2 [8]
00000000: 1230 5930 bb2b 3f2c 5c31 122b f130 f92d
0.1272 0.1359 0.0604 0.06635 0.1675 0.05524 0.1544 0.0933

weight f2 [8, 8, 3, 3]
00000000: 29ad 71a0 59a6 79ac 9830 41ae 5a30 aa32
00000010: 792b 291d 1a30 57aa 7132 dfae 6a28 1aad
00000020: 22a4 24aa b92c 4934 9eae 432e 99b0 2ca8
00000030: f8b0 3bb0 beae 4227 3b2a 1cb0 0ab0 b2b0
00000040: f49e b0af 84a9 1b28 5aa8 06b0 1028 9cb2
00000050: 9718 8b2f eea7 a2ac 6033 1d31 2b2b ecae
00000060: 4624 c7ae 0619 55b0 03b1 2ca8 5eae 6125
00000070: e42e 0e27 762d cab1 dc2c d5a9 38b0 0ead
00000080: 2db0 0633 b02b 4228 e3a3 91a1 312a 322f
00000090: e431 86ac 44a8 c3a8 3a9d c5ad e82c f430
000000a0: f198 a525 2d32 6a2a 41a3 e029 ab2f 28ab
000000b0: 20b0 2f2d d0aa 1531 c130 42ab af2b 8331
000000c0: b8b1 7bb2 8630 7429 b62d 0ba5 4f28 f02e
000000d0: 16b4 1c31 0031 b030 9f28 c3a9 6cae e71f
000000e0: f22f 6e32 e31f 4925 a42a f9a2 0f2d b02d
000000f0: cd2c 5130 ff29 0c2c 5293 db2b e331 1eb2
00000100: 32af f22c b331 53ad 152d ddac c622 28ac
00000110: e1b2 edb0 b6a5 7cac 3ab2 2630 e328 7dae
00000120: 18af 54ac 21b4 c5ad eeae 0db4 07ac 1daf
00000130: ecae 73ae 11b6 e428 f8af 12ac ce31 1428
00000140: 502b 7932 0eac d8b2 18aa 1e28 d725 4931
00000150: d32d a031 5532 82aa 38a8 0f2c 5fa8 cca5
00000160: b4ae 2730 3b24 ec2d eba7 492f f59c cab0
00000170: db2e 8d25 1ead 63b0 861b bc29 54af 1429
00000180: 652c 37b1 f433 b92f 1eb1 2630 372e bb28
00000190: 3ca8 57ae ffa4 dbb2 fcaf c7ab 5aa8 1434
000001a0: 3e32 b833 5cac dfa5 83b2 01b4 b7a6 e7a2
000001b0: 4631 7f29 04af a329 9aae 30af f123 faaf
000001c0: 38ae 7c24 49b1 222f e4ae a530 da26 6e2e
000001d0: ab2f 7bac caaf a2b1 1231 01b4 3429 c11e
000001e0: b7af 682d 472c 2229 bb2e 1f20 8225 9525
000001f0: 6eae c430 292b 33b3 01a5 77ad 4eac e832
-0.0806 -0.008675 -0.0248 -0.0699 0.1436 -0.0977 0.136 0.2083
0.05838 0.00504 0.1282 -0.04953 0.2013 -0.10736 0.0345 -0.0797
-0.01614 -0.04797 0.0738 0.2678 -0.1034 0.09784 -0.1437 -0.0326
-0.1553 -0.1322 -0.10535 0.02835 0.04868 -0.1284 -0.1262 -0.1467
-0.00679 -0.1201 -0.0431 0.03207 -0.034 -0.1257 0.03174 -0.2065
0.002241 0.11786 -0.03098 -0.0724 0.2305 0.1598 0.056 -0.10815
0.0167 -0.1059 0.002453 -0.1354 -0.1566 -0.0326 -0.0995 0.02101
0.10767 0.02756 0.0853 -0.1809 0.0759 -0.04556 -0.1318 -0.079
-0.1305 0.2195 0.06006 0.03326 -0.0154 -0.01087 0.04837 0.1124
0.1841 -0.0707 -0.03333 -0.0372 -0.005104 -0.09015 0.07666 0.1548
-0.002413 0.02205 0.193 0.0501 -0.01417 0.0459 0.1198 -0.0559
-0.1289 0.081 -0.05322 0.1588 0.1486 -0.0567 0.06003 0.1722
-0.1787 -0.2025 0.1414 0.0426 0.08923 -0.0197 0.03366 0.1084
-0.2554 0.1597 0.1562 0.1465 0.0361 -0.045 -0.10034 0.007717
0.12415 0.2009 0.0077 0.02065 0.05188 -0.01362 0.07904 0.08887
0.075 0.1349 0.04684 0.06323 -0.0008936 0.06137 0.184 -0.1912
-0.1124 0.0773 0.1781 -0.0832 0.0794 -0.076 0.01323 -0.06494
-0.215 -0.1539 -0.02231 -0.07007 -0.1946 0.1296 0.03818 -0.1014
-0.11084 -0.0676 -0.258 -0.09015 -0.1083 -0.2532 -0.0629 -0.11115
-0.10815 -0.10077 -0.3792 0.0382 -0.1245 -0.0636 0.1814 0.03186
0.05713 0.2023 -0.06335 -0.2139 -0.0476 0.03217 0.02281 0.1652
0.091 0.1758 0.1979 -0.05084 -0.03296 0.0634 -0.03415 -0.02264
-0.10474 0.1298 0.01653 0.0925 -0.03093 0.11383 -0.00484 -0.1497
0.1071 0.02168 -0.07996 -0.1371 0.003674 0.0448 -0.1145 0.03967
0.06866 -0.163 0.2485 0.12067 -0.1599 0.1296 0.0971 0.03696
-0.03308 -0.09906 -0.01952 -0.2142 -0.12476 -0.06076 -0.034 0.255
0.1951 0.2412 -0.0681 -0.02293 -0.2035 -0.2502 -0.02623 -0.01348
0.1648 0.04294 -0.1096 0.04404 -0.10315 -0.1123 0.01551 -0.12463
-0.09717 0.01752 -0.1652 0.11145 -0.10767 0.1451 0.02676 0.10046
0.1198 -0.07 -0.1217 -0.176 0.1584 -0.2502 0.04065 0.006596
-0.12054 0.0845 0.06683 0.0401 0.10516 0.00805 0.02151 0.0218
-0.10046 0.1489 0.05594 -0.225 -0.01955 -0.0854 -0.06726 0.2158

weight f2 [8]
00000000: 553b 8c3c 7b3c 583c e63b 573c 743c 373d
0.9165 1.137 1.12 1.086 0.9873 1.085 1.113 1.304

bias f2 [8]
00000000: 8bac 4632 121f bf30 4c93 902d 6734 97a9
-0.071 0.196 0.006905 0.1483 -0.0008907 0.0869 0.2751 -0.04367

running_mean f2 [8]
00000000: 33b1 9f35 51b2 a9b1 9cb2 b8b4 c9ac 51b8
-0.1625 0.3513 -0.1974 -0.1769 -0.2065 -0.295 -0.07477 -0.5396

running_var f2 [8]
00000000: 1535 e739 fb3a a738 4136 dc38 983b 5e3a
0.3176 0.738 0.8726 0.5815 0.3909 0.6074 0.949 0.796

weight f2 [32, 16, 3, 3]
00000000: fc20 2aad 7d23 e92d 1c26 9daf 0aae 29b0
00000010: 5aa4 e130 7f35 0032 e2ab 6830 2e33 0022
00000020: c0ad 7fa9 4a29 652d dfa9 3db1 e6ae a8a9
00000030: 7da7 56b2 81a9 c6a6 0ca4 4730 802c 5d32
00000040: b633 67ac 0820 a2b0 261c d3aa 01b1 4aa4
00000050: 0baf 95b0 b829 38a8 c6ae bc95 591f a22b
00000060: 2328 79ae f7ac 66aa ca89 4e20 5727 0c30
00000070: ba2c a5af f0aa c3ac 94ab 452f c62e ca2a
00000080: f12e 0230 d130 5631 fd31 8d2c 0e23 4430
00000090: 76b0 8b2d d32d 9ab0 2b23 7f31 d823 1dad
000000a0: 4aa4 d327 352d 3e25 752b a42e f9a2 b2a9
000000b0: 762c 0e2e bd1c 3928 9eb0 4226 9baa 26aa
000000c0: 3b2e af25 8929 b830 f624 b7a3 eda3 3c31
000000d0: 4c34 d7b2 feb4 5bb2 a629 fc2e fb25 d1af
000000e0: fdae 2a2c 5e2a c631 7032 632d e327 e9aa
000000f0: fc2e 41a4 bfa9 5b2d 342c c887 e5a8 b821
00000100: 6f30 502f b3ae eeb0 a4a8 601c 6aac a026
00000110: 882a d92b 1a31 03aa b5b1 65a2 fe24 b2a9
00000120: f1aa b22e b92d 3fae 7f2c ac2e d9a7 fc26
00000130: 6c2c 8cb0 f0ab 042b f62f 2ba8 60af cf29
00000140: db2b c4b0 b29c 818f 7faa 0ba8 4db0 55ad
00000150: abad dea6 532d 2527 202c a12b 2426 2c34
00000160: e92e f89d 8f2c 9b26 b124 569c 5a29 b1ad
00000170: 27b0 821e eba9 5fa9 c12d b528 481f 56b0
00000180: 68af e0a8 37b0 55ae eea9 0cac cc28 2dad
00000190: 2fa8 1388 caa3 aca8 05aa 6d29 ccad 8caf
000001a0: 59af 0e30 4eaf a2b0 ec2f 73ac 89af 4aa8
000001b0: 2c1d faa2 0130 ed2f 33b1 8cb1 1825 4ea7
000001c0: 24ac 9d29 9ea9 3b94 07a0 982b 72ab 5621
000001d0: 7b2a a7ab 12b0 6224 13ae 09a5 4cb0 c5ac
000001e0: 4f29 06b1 6627 b7a6 20a8 99a9 a1ae 619a
000001f0: b8a9 6aaf d132 5e31 02ad 2a95 162b fa27
0.009735 -0.0807 0.014626 0.09235 0.02386 -0.11896 -0.09436 -0.13
-0.017 0.1525 0.3435 0.1875 -0.06158 0.1377 0.2244 0.01172
-0.08984 -0.04294 0.04132 0.0843 -0.04587 -0.1637 -0.1078 -0.0442
-0.02925 -0.198 -0.043 -0.02646 -0.01581 0.1337 0.0703 0.1989
0.241 -0.0688 0.00787 -0.1448 0.00405 -0.0533 -0.1564 -0.01675
-0.11005 -0.1432 0.04468 -0.03296 -0.10583 -0.0014 0.007175 0.05963
0.03232 -0.10114 -0.0776 -0.05 -0.0001767 0.00841 0.02867 0.1265
0.07385 -0.11945 -0.0542 -0.0744 -0.0592 0.1136 0.10583 0.05304
0.10846 0.1252 0.1505 0.1667 0.1871 0.0711 0.01378 0.1333
-0.1394 0.0866 0.091 -0.1438 0.014 0.1718 0.01532 -0.0799
-0.01675 0.03056 0.08136 0.02048 0.05826 0.10376 -0.01362 -0.0445
0.0697 0.0946 0.004627 0.033 -0.1443 0.02444 -0.0516 -0.04803
0.09735 0.0222 0.04324 0.1475 0.01938 -0.01507 -0.01548 0.1636
0.2686 -0.2137 -0.312 -0.1986 0.04413 0.10913 0.02336 -0.12213
-0.1092 0.06506 0.04974 0.1804 0.2012 0.08417 0.0308 -0.054
0.10913 -0.01662 -0.0449 0.0837 0.0657 -0.00011873 -0.03824 0.01117
0.1385 0.11426 -0.1047 -0.154 -0.03625 0.004272 -0.069 0.02588
0.05103 0.0613 0.1594 -0.04697 -0.1783 -0.01249 0.0195 -0.0445
-0.05423 0.1046 0.0894 -0.0976 0.07025 0.10425 -0.03065 0.02728
0.0691 -0.1421 -0.062 0.0548 0.1244 -0.03256 -0.11523 0.04538
0.06137 -0.1489 -0.004585 -0.000458 -0.05075 -0.0316 -0.1344 -0.0833
-0.08856 -0.02682 0.0832 0.02791 0.06445 0.0596 0.02399 0.2607
0.108 -0.00583 0.0712 0.0258 0.01833 -0.004234 0.0418 -0.0889
-0.1298 0.006355 -0.04623 -0.04196 0.0899 0.03677 0.00711 -0.1355
-0.1157 -0.0381 -0.1317 -0.09894 -0.04633 -0.06323 0.03748 -0.0809
-0.03268 -0.0001243 -0.01521 -0.0365 -0.04703 0.0424 -0.0906 -0.1179
-0.1148 0.1267 -0.11414 -0.1448 0.1238 -0.0695 -0.11774 -0.0335
0.00505 -0.013626 0.1251 0.12384 -0.1625 -0.1733 0.0199 -0.02853
-0.0647 0.04385 -0.04388 -0.001033 -0.007866 0.05933 -0.05817 0.01042
0.05063 -0.05978 -0.1272 0.01712 -0.0949 -0.01967 -0.1343 -0.0745
0.04147 -0.157 0.0289 -0.02623 -0.03223 -0.04373 -0.1036 -0.003115
-0.04468 -0.11584 0.213 0.1677 -0.07825 -0.001261 0.05536 0.03116

weight f2 [32]
00000000: 213b ee3a ef3b 883b 053c 813c 643c 153c
00000010: 523b e13b 0a3c b73b 9e3b d03b ad3b 3b3b
00000020: 523c 8a3b 283c a23b 4e3c 2e3c 1e3c 813a
00000030: 4e3b f73b 383b 663c a33b 863b 3e3c af3b
0.891 0.866 0.9917 0.9414 1.005 1.126 1.098 1.0205
0.915 0.985 1.01 0.9644 0.952 0.9766 0.9595 0.904
1.08 0.9424 1.039 0.954 1.076 1.045 1.029 0.813
0.913 0.9956 0.9023 1.1 0.9546 0.9404 1.061 0.9604

bias f2 [32]
00000000: 17ae 5428 b1aa 18ac b02e 7d27 002b 2d2d
00000010: 2fac 051d 542d f9a5 df28 892e b324 a8a2
00000020: d72c aba7 392d d02e 8ea8 c724 4327 09ad
00000030: a92b 4f2c e424 2323 d8a4 7627 1b32 732b
-0.09515 0.0338 -0.05228 -0.06396 0.1045 0.02925 0.0547 0.0809
-0.06537 0.0049 0.08325 -0.02333 0.03806 0.1021 0.01836 -0.013
0.0756 -0.02995 0.0816 0.10645 -0.03558 0.01866 0.02837 -0.0787
0.05984 0.0673 0.0191 0.01394 -0.01892 0.02914 0.1908 0.0582

running_mean f2 [32]
00000000: 3935 49b8 45b2 b7b1 e1b8 5b23 ebb8 8fb5
00000010: 0622 b7b9 58b8 71b1 0ab6 02b0 62b4 529d
00000020: 5bb8 50b4 84b0 ef2f 43b3 b7af 61ad 94b7
00000030: e52a 11b2 cdb2 c6ac 1abb 7f34 85ba 463b
0.3264 -0.5356 -0.1959 -0.1786 -0.61 0.014366 -0.6147 -0.3474
0.011765 -0.7144 -0.543 -0.17 -0.3774 -0.1252 -0.274 -0.005196
-0.5444 -0.2695 -0.1411 0.12396 -0.2269 -0.12054 -0.08405 -0.4736
0.05386 -0.1896 -0.2125 -0.0746 -0.8877 0.281 -0.815 0.909

running_var f2 [32]
00000000: 5a3c b13a 9437 7939 6038 423b 783c 7538
00000010: 2a36 0739 243c 4038 1d38 003b 1338 223b
00000020: 5238 5f38 293a d738 6539 9838 d638 593b
00000030: 493c 9a39 5c37 3c3b 5137 d939 703c 3c3c
1.088 0.8364 0.4736 0.684 0.547 0.907 1.117 0.557
0.3853 0.6284 1.035 0.5312 0.514 0.875 0.5093 0.8916
0.54 0.5464 0.77 0.605 0.6743 0.574 0.6045 0.9185
1.071 0.7 0.46 0.9043 0.4573 0.731 1.109 1.059

weight f2 [16, 32, 1, 1]
00000000: e7ac b1b0 11b4 4b30 07b0 c92a ffb1 ec21
00000010: b4b3 4a26 17a0 8529 e6b1 7421 282b 4a34
00000020: ca32 edad 8caa 72b1 bf23 29ae 342d fdb2
00000030: e52b 3eae 44b3 0429 98a9 3fb2 e72d c0ae
00000040: d129 7d35 5031 0a21 90ab 44b1 8a33 d7b0
00000050: 96b0 d6af 0c2a b82e bb2f a2b0 462b 65a4
00000060: 332d 7118 2cb4 00b0 53b2 1f2d 6faf f932
00000070: 7b2a 78b5 a431 e5b1 38b1 0634 3128 4c2b
00000080: 0b2b 7dae 3da5 4134 6c22 feab ea2d 6f31
00000090: 5f32 77b1 74a6 6ca9 97a7 d9b0 1f2a baaf
000000a0: f1ae 41b4 8cac 2424 1eaa afa7 d3b4 9299
000000b0: 36b1 40ab c22e 3e31 632d 0db2 53b3 cea0
000000c0: 012d 20b0 3e18 1930 2d30 a4ac 38b0 2929
000000d0: 032d 56b1 1927 04b2 6c30 a1b0 be31 6128
000000e0: 0eb3 592a 742c d02f 74a9 8faa 84ac 3224
000000f0: 5d32 12ab 702c dfb0 0426 3929 3819 8634
00000100: b89f e732 f9a4 3fb3 68ac 132d 0d28 7eb0
00000110: bf26 2f91 c733 412c 372d ec27 9bb0 c7ae
00000120: 732d b3ad 96b3 9927 602e bdb4 132d 42ac
00000130: d1b3 a9b1 5031 daa3 f4af dcb3 4dad 0b33
00000140: c6b4 43af cd28 cea9 fa99 6b30 4624 b7af
00000150: 132f dca2 1d20 7133 5131 b123 129e a6a8
00000160: feb0 7a28 f831 52ac 3029 b8b3 b225 af32
00000170: 231d 5b28 f9b1 4e30 08b4 1db5 44ac 97a1
00000180: 6f31 c1af 5a2a 0ab1 75ad 88b1 e0b4 cfae
00000190: fa20 8b34 3a28 e534 1924 8231 7c28 e835
000001a0: 6bb2 a032 d8a7 59ae 1ab3 1b2b 5f2a 5b31
000001b0: 5a32 feb0 a6ae 9bb0 1ab2 602d acae 642b
000001c0: a8a9 d02c 382a 672f 5923 38b4 c229 8131
000001d0: 58a8 8eac da2a 05ae d02a 622d 0c30 dc2c
000001e0: 1ab0 9eb1 64b4 98a6 5cb1 5631 1daf e8ac
000001f0: 7233 4db0 3632 79af 062a ecb3 2832 b1af
-0.0766 -0.1466 -0.2542 0.1342 -0.1259 0.053 -0.1874 0.011566
-0.2407 0.02457 -0.00799 0.04312 -0.1843 0.01065 0.0559 0.268
0.2122 -0.0926 -0.05115 -0.1702 0.01513 -0.09625 0.0813 -0.2184
0.06168 -0.09753 -0.227 0.03918 -0.0437 -0.1952 0.0922 -0.10547
0.04544 0.343 0.166 0.00984 -0.05908 -0.1646 0.2356 -0.1512
-0.1433 -0.12244 0.04724 0.105 0.1208 -0.1448 0.05682 -0.01717
0.08124 0.002169 -0.2607 -0.125 -0.1976 0.08 -0.11615 0.2179
0.05063 -0.3418 0.1763 -0.1842 -0.1631 0.2515 0.03275 0.057
0.05502 -0.1014 -0.02046 0.2659 0.01254 -0.06244 0.0924 0.1698
0.1991 -0.1708 -0.0252 -0.04236 -0.02965 -0.1515 0.04782 -0.1207
-0.10846 -0.2659 -0.07104 0.01617 -0.0478 -0.03001 -0.3015 -0.00272
-0.1628 -0.05664 0.1056 0.1638 0.08417 -0.1891 -0.2289 -0.009384
0.0782 -0.1289 0.002071 0.128 0.1305 -0.0725 -0.1318 0.0403
0.0783 -0.1667 0.02773 -0.188 0.1382 -0.1447 0.1794 0.0342
-0.2205 0.0496 0.0696 0.1221 -0.0426 -0.05124 -0.07056 0.01639
0.1989 -0.05524 0.06934 -0.1522 0.0235 0.0408 0.002548 0.2827
-0.007538 0.2157 -0.01942 -0.2264 -0.06885 0.0793 0.03165 -0.1404
0.02635 -0.000633 0.243 0.06647 0.0815 0.03094 -0.1439 -0.1059
0.08514 -0.08905 -0.237 0.02968 0.0996 -0.2961 0.0793 -0.0665
-0.2443 -0.1769 0.166 -0.015335 -0.12427 -0.2456 -0.0828 0.2201
-0.2983 -0.11346 0.0375 -0.04535 -0.002918 0.1381 0.0167 -0.12054
0.11053 -0.0134 0.00803 0.2325 0.1661 0.01502 -0.005928 -0.03632
-0.156 0.03497 0.1865 -0.0675 0.04053 -0.2412 0.02225 0.2089
0.005016 0.03403 -0.1866 0.1345 -0.252 -0.3196 -0.06665 -0.01092
0.1698 -0.12115 0.04962 -0.1575 -0.08527 -0.1729 -0.3047 -0.1064
0.00972 0.284 0.03302 0.306 0.016 0.1721 0.03503 0.3691
-0.2006 0.207 -0.03064 -0.0992 -0.2219 0.0555 0.04977 0.1674
0.1985 -0.156 -0.1039 -0.1439 -0.1907 0.084 -0.10425 0.05774
-0.0442 0.0752 0.04858 0.11566 0.01435 -0.2637 0.04498 0.172
-0.03394 -0.07117 0.05353 -0.09406 0.05322 0.0841 0.1265 0.0759
-0.1282 -0.1755 -0.2744 -0.02576 -0.1675 0.1667 -0.11115 -0.07666
0.2327 -0.1344 0.1941 -0.11676 0.04706 -0.2476 0.1924 -0.1202

weight f2 [16]
00000000: 8e3a 863a 793a 743a a93a 0b3c 153a 0a3a
00000010: 453c 1b3c 8b3b bc39 c83a 1e3a 183b 563a
0.8193 0.8154 0.809 0.8066 0.8325 1.011 0.7603 0.755
1.067 1.026 0.943 0.717 0.8477 0.7646 0.8867 0.792

bias f2 [16]
00000000: a0ab 4231 101f 1aa8 ed2c d4a5 0819 532d
00000010: aa2e 382e c11f 7c21 312e a926 69ad 512b
-0.05957 0.1643 0.006897 -0.03204 0.07697 -0.02277 0.002457 0.0832
0.1041 0.09717 0.007572 0.01071 0.09674 0.02602 -0.08453 0.05716

running_mean f2 [16]
00000000: 89b3 10ae 03b4 d024 ffb0 22ae 2bae 6ead
00000010: 3734 c531 d8b0 3f2f b4b0 0d30 1eb5 69b7
-0.2355 -0.0947 -0.2507 0.0188 -0.1561 -0.0958 -0.0964 -0.08484
0.2634 0.1803 -0.1514 0.1132 -0.147 0.1266 -0.3198 -0.4631

running_var f2 [16]
00000000: 8a31 6837 3e35 fb34 f634 2535 1639 5936
00000010: 4934 cf35 8d36 4035 b135 2836 8836 4d34
0.1731 0.463 0.3276 0.3113 0.31 0.3215 0.6357 0.3967
0.2678 0.363 0.4094 0.3281 0.3557 0.3848 0.4082 0.2688

weight f2 [16, 32, 1, 1]
00000000: 90ac c731 89a1 ad32 15a9 5ab3 edae 26af
00000010: ca26 972c 7cae c9b0 efb1 5da6 5fad 1f2e
00000020: 9eb0 ffaf b731 022b 562d 3f2d 98a8 e52a
00000030: 002a 0cb4 7721 39b2 6db1 ce2b da30 9532
00000040: 9daf 612a e82d 9024 a5af 22b0 592f ee2e
00000050: 37a8 ab2c 132d a2ae aa2e eaaf 7528 7baf
00000060: ebaf 9d2a 532f 3928 8525 2eaa 20af 5f2c
00000070: 0922 be33 69b0 08b0 36ab ffb1 d1b0 2aac
00000080: 4728 1422 4622 c0ae 94b0 ff2c 3826 c5ad
00000090: 8bb0 9e30 56ad 5928 3730 21b1 26ac 262e
000000a0: 90ad 89a8 22a1 dfae f62f 5d30 e330 d5ac
000000b0: 20ab bd30 ea2d b8b0 fba7 9aa8 85a8 e6af
000000c0: 11ae cb29 fd0d 0728 a12b e4a5 de33 0a9f
000000d0: e02d 45ae 4eb1 23a4 99ac 9faf ac2f 9aa0
000000e0: 40a3 6122 3733 9d1f fc2d 7920 d833 712d
000000f0: d8a5 532b 4bae 9a31 94ac deaf 222c e699
00000100: 5aa7 482c 69a7 94b0 5a2e b92a 72a5 4dac
00000110: cdad 60b0 1d2a ddab 97ab 57ad f9ac c3ac
00000120: 9a2b eeaa 032d 1332 3234 5525 d0ac 71ab
00000130: 62b3 a898 432d ca1e 8118 212c 1533 1cae
00000140: df2f b52a 0eac 98ac 942e af2e 002e dcb0
00000150: e8af 8f24 e8af c328 bf30 6d9d 3835 60b4
00000160: c930 29af 16ae bf0b 4db1 47a9 f5a9 4d2e
00000170: adaa 699f 7bac 6633 f32e ca32 b6b1 fbaf
00000180: 2a2c 14b0 9cad 3f33 6229 efad 2a28 b42c
00000190: 10ad aa30 f324 bdb0 89b1 aab1 c134 b2ad
000001a0: ac2d 612f 3228 14a9 6eb2 42b0 94ae 112e
000001b0: 8faf f1ac 1920 c82f 0fae 0326 f2ad 4cb5
000001c0: f3aa d62f 129e a121 1b34 8ca5 05a8 752c
000001d0: 6eac e232 08ac eb2b 082f 0031 61a0 46a1
000001e0: b8ac b931 ad28 c893 3e28 132d fd2c 36ad
000001f0: 09af 1c2f 01a9 4ead 17a0 89af fe30 15b2
-0.0713 0.1805 -0.01081 0.2086 -0.0397 -0.2297 -0.1082 -0.1117
0.02652 0.0717 -0.1013 -0.1495 -0.1854 -0.02486 -0.0839 0.09564
-0.1443 -0.12494 0.1786 0.05475 0.0834 0.082 -0.0359 0.05386
0.04688 -0.253 0.01067 -0.1945 -0.1696 0.06097 0.1516 0.2057
-0.11896 0.04984 0.0923 0.01782 -0.11945 -0.1292 0.1148 0.1083
-0.03293 0.07294 0.0793 -0.10364 0.1041 -0.12366 0.03482 -0.1169
-0.1237 0.05167 0.11444 0.033 0.02156 -0.04828 -0.1113 0.0683
0.01179 0.242 -0.1378 -0.126 -0.05634 -0.1874 -0.1505 -0.06506
0.03342 0.01187 0.01225 -0.10547 -0.1431 0.07806 0.02429 -0.09015
-0.142 0.1443 -0.0834 0.03397 0.1317 -0.1603 -0.0648 0.09607
-0.0869 -0.03543 -0.010025 -0.10736 0.1244 0.1364 0.1527 -0.0755
-0.05566 0.1481 0.0924 -0.1475 -0.03117 -0.03595 -0.0353 -0.1234
-0.0948 0.04526 0.0003655 0.03146 0.0596 -0.02301 0.2458 -0.006874
0.0918 -0.09796 -0.1658 -0.01616 -0.07184 -0.1191 0.1199 -0.00899
-0.01416 0.01246 0.2255 0.007435 0.0935 0.008736 0.2451 0.085
-0.02283 0.05722 -0.0983 0.175 -0.07153 -0.1229 0.0646 -0.00288
-0.02872 0.0669 -0.02895 -0.1431 0.09924 0.05252 -0.02127 -0.0672
-0.09064 -0.1367 0.04776 -0.06143 -0.0593 -0.08344 -0.0777 -0.0744
0.0594 -0.05414 0.0783 0.1898 0.2622 0.02083 -0.0752 -0.05814
-0.2307 -0.002274 0.0822 0.00663 0.0022 0.0645 0.2213 -0.09546
0.123 0.0524 -0.06335 -0.0718 0.1028 0.10443 0.09375 -0.1519
-0.12354 0.0178 -0.12354 0.0372 0.1483 -0.0053 0.3262 -0.2734
0.1495 -0.1119 -0.0951 0.0002364 -0.1656 -0.04123 -0.04654 0.09845
-0.05215 -0.007236 -0.07 0.2312 0.1086 0.2122 -0.1785 -0.1247
0.06506 -0.1274 -0.08765 0.2264 0.04205 -0.0927 0.03253 0.0735
-0.0791 0.1458 0.01933 -0.1481 -0.173 -0.177 0.297 -0.089
0.0886 0.1153 0.03278 -0.03967 -0.2009 -0.133 -0.1028 0.0948
-0.1181 -0.0772 0.008 0.1216 -0.09467 0.02348 -0.0929 -0.331
-0.0543 0.12244 -0.005928 0.010994 0.2566 -0.02167 -0.0314 0.06964
-0.0692 0.2151 -0.063 0.06186 0.10986 0.1562 -0.00855 -0.0103
-0.0737 0.1788 0.03653 -0.00095 0.03314 0.0793 0.07794 -0.0814
-0.1099 0.1111 -0.0391 -0.0829 -0.00799 -0.11774 0.156 -0.1901

weight f2 [16]
00000000: b43b f63b ec3b 4d3c e33b dd3b d63b 093c
00000010: cc3b 103c 023c 213c cb3b 173c 0c3c 9a3b
0.963 0.995 0.99 1.075 0.986 0.983 0.9795 1.009
0.9746 1.016 1.002 1.032 0.974 1.022 1.012 0.95

bias f2 [16]
00000000: 0b28 0123 0417 fc2d b0a3 fc27 64ae d129
00000010: a826 1427 2f1d 1e24 2e27 7d29 2726 32a6
0.0316 0.01368 0.001713 0.0935 -0.015015 0.03119 -0.09985 0.04544
0.026 0.02765 0.005062 0.01608 0.02805 0.04288 0.02403 -0.0242

running_mean f2 [16]
00000000: 8eb0 c7af 3aad 1631 2529 1124 f9b1 b431
00000010: cdb1 45af 3630 71b4 97b0 4e2c 3aa6 7929
-0.1423 -0.1215 -0.08167 0.1589 0.0402 0.01588 -0.1866 0.1782
-0.1813 -0.1136 0.1316 -0.2776 -0.1434 0.06726 -0.02432 0.04276

running_var f2 [16]
00000000: f135 f330 d730 aa30 9531 df30 6932 8a30
00000010: b232 d52f de30 852f 9030 d531 2135 9235
0.3713 0.1547 0.1512 0.1458 0.1744 0.1522 0.2003 0.1418
0.2092 0.1224 0.1521 0.1175 0.1426 0.1823 0.3206 0.3481

weight f2 [32, 32, 1, 1]
00000000: b632 2d95 2d2e d928 e2b0 f430 0e30 0219
00000010: 67b4 65ae 4a30 2b30 ba2c 4528 cd31 af2c
00000020: 5f31 5bb2 4fa0 d9ae 9230 9eb1 21b2 dda9
00000030: 6ea4 c021 9a2c 9baf 4e9f d1af 89ac db28
00000040: 6031 4233 352d bd32 09ac 202d f12f b031
00000050: 3824 5331 4c30 a1af 77ab 22b2 902b 872f
00000060: afb0 972f 55af bd26 31af 2ab1 4028 132b
00000070: 2b28 a0ae 36a6 9629 9f28 fcb0 27aa 16b5
00000080: 61ae 7d2f 6225 0cae b2b0 96af 3a35 23b0
00000090: 97b3 41ae e4b2 92b2 ea9d 7321 69ad 6331
000000a0: 5024 c9a8 88b2 51b0 cab0 642e 1992 7e9d
000000b0: c92e 54ac 27b0 80a9 6398 e5ac 9b2a 5930
000000c0: a1aa 14a5 b128 5db1 b3ac beac e829 9fad
000000d0: bdb0 0131 202c b2a5 cb28 ecab f7a0 6528
000000e0: 55ae 2f30 3731 d82e cd2e c1b0 382f c3a5
000000f0: 30b1 632c 82ae 6123 082c 4931 b62c 47b1
00000100: beb1 ff90 a42a 66a8 9a2c dbb2 e8b0 5cab
00000110: 1529 79ad 1c34 9ba4 58ae 11a9 1e2a 0eb5
00000120: 1832 d2ac eead b4a3 ea30 182d 49b1 37ab
00000130: 51a2 9ea9 3dae c4ad 7f2a 0b2c 692c 0320
00000140: 98ad 77a8 0cb3 0b2f d82c e431 8e33 ef2f
00000150: 6331 7fab 2634 c2af a9b1 622c c228 25af
00000160: 6b18 5329 7f2b f12b f230 22b0 7ba4 a1ac
00000170: bdac 7a2e b72e c92f 689c 731c 0f26 d0b3
00000180: 97b2 fa31 132f b0af 072b a5b1 c427 821e
00000190: b094 78ad f828 6131 632f 3ba9 572d 4f29
000001a0: 9332 0d28 19b4 8b29 91ae aa2e 0733 8f27
000001b0: d92e 4432 41b1 7b28 1c29 cbab 1ab0 5930
000001c0: 87a8 43b1 39ab 01b1 b626 5e30 b71b 4bac
000001d0: 5434 1ab0 3ead 16a5 d6a9 8cad aea8 3607
000001e0: 05ab 9731 d530 0125 f5ab 6f20 d523 9d32
000001f0: 26b0 e430 cfab e7ab 44b1 e8b0 ccae 7a29
0.2097 -0.001264 0.0965 0.03787 -0.1526 0.1548 0.1267 0.002445
-0.2751 -0.0999 0.134 0.1302 0.07385 0.03336 0.1813 0.0732
0.1678 -0.1986 -0.008415 -0.107 0.1428 -0.1755 -0.1915 -0.0458
-0.0173 0.01123 0.0719 -0.11884 -0.007133 -0.12213 -0.07086 0.03793
0.168 0.2268 0.08136 0.2106 -0.06305 0.0801 0.1241 0.1777
0.01648 0.1664 0.1343 -0.1192 -0.05832 -0.1917 0.05908 0.1176
-0.1464 0.1186 -0.11456 0.02632 -0.11237 -0.1614 0.0332 0.05527
0.03256 -0.1035 -0.02426 0.04364 0.0361 -0.1558 -0.04807 -0.3179
-0.0997 0.117 0.02103 -0.0945 -0.1467 -0.1185 0.3267 -0.1293
-0.2372 -0.0977 -0.2153 -0.2053 -0.005775 0.01064 -0.08453 0.1683
0.01685 -0.03738 -0.2041 -0.1349 -0.1497 0.09985 -0.0007443 -0.005363
0.106 -0.0676 -0.1298 -0.04297 -0.002142 -0.0765 0.0516 0.1359
-0.0518 -0.01984 0.03665 -0.1676 -0.0734 -0.0741 0.04614 -0.0878
-0.1481 0.1564 0.06445 -0.02225 0.03745 -0.0619 -0.0097 0.03433
-0.09894 0.1307 0.163 0.10693 0.10626 -0.1486 0.1128 -0.0225
-0.1621 0.06854 -0.1017 0.01441 0.063 0.1652 0.0736 -0.1649
-0.1794 -0.00061 0.05188 -0.03436 0.0719 -0.2142 -0.1533 -0.0575
0.0397 -0.0855 0.2568 -0.01799 -0.0991 -0.03958 0.0478 -0.316
0.1904 -0.0753 -0.09265 -0.015045 0.1536 0.0796 -0.1652 -0.05637
-0.01234 -0.04388 -0.0975 -0.0901 0.05075 0.0632 0.0689 0.007835
-0.0874 -0.03488 -0.2202 0.11005 0.0757 0.1841 0.2361 0.12396
0.1683 -0.05856 0.2593 -0.1212 -0.1769 0.0685 0.03717 -0.11163
0.002157 0.0416 0.05856 0.06204 0.1545 -0.1292 -0.0175 -0.0723
-0.07404 0.1012 0.1049 0.12164 -0.004303 0.004345 0.02367 -0.2441
-0.2059 0.1868 0.11053 -0.1201 0.0549 -0.1764 0.03033 0.006355
-0.001144 -0.08545 0.03882 0.1681 0.1154 -0.04086 0.08344 0.04147
0.2054 0.03165 -0.256 0.0433 -0.1026 0.1041 0.2196 0.02953
0.107 0.1958 -0.1642 0.035 0.03992 -0.06088 -0.1282 0.1359
-0.03537 -0.1644 -0.05643 -0.1564 0.02621 0.1365 0.003767 -0.0671
0.2705 -0.1282 -0.0819 -0.01987 -0.0456 -0.0867 -0.03656 0.00011003
-0.05484 0.1747 0.151 0.01955 -0.06216 0.00866 0.0153 0.2067
-0.1296 0.1528 -0.061 -0.06174 -0.1646 -0.1533 -0.1062 0.0428

weight f2 [32]
00000000: b73b 433c b73b 343c 553c 283c e93b fd3b
00000010: 053c 393c bc3b 493b 883b 3c3c b03b 033c
00000020: 453c 5b3c 733b 553c 1a3c 2a3c e83b bb3b
00000030: 0b3c 173c 753c 033c 563b d73b 273c 3f3c
0.9644 1.065 0.9644 1.051 1.083 1.039 0.989 0.9985
1.005 1.056 0.967 0.9106 0.9414 1.059 0.961 1.003
1.067 1.089 0.931 1.083 1.025 1.041 0.9883 0.9663
1.011 1.022 1.114 1.003 0.917 0.98 1.038 1.062

bias f2 [32]
00000000: 202e 6f29 ccaa fe2d ca83 0a2d c69c d52c
00000010: 22a3 392f 4129 c127 b9a5 362f 7aa2 cb1f
00000020: 2030 4f2c 6a27 0b2b a128 171c 092c 2e26
00000030: df1a 4721 8cab b91c 0f25 f8a6 b030 dc2a
0.0957 0.04245 -0.0531 0.0936 -5.78e-05 0.07874 -0.00466 0.0755
-0.01393 0.11285 0.04105 0.03029 -0.02235 0.1127 -0.01265 0.00761
0.1289 0.0673 0.02896 0.05502 0.03616 0.003994 0.06305 0.02414
0.003355 0.01031 -0.05896 0.004612 0.01976 -0.02722 0.1465 0.0536

running_mean f2 [32]
00000000: e22c aa34 7bb7 c8aa d6b4 1533 e230 d7b0
00000010: eeb4 7bb6 3cb5 282c 8732 77b2 ba2e 86ac
00000020: 5cb0 8fb0 b32e 9d32 f3b2 9caf 3e30 deb0
00000030: 1eb4 89b6 edb8 7930 0f37 55b2 15b6 95b8
0.0763 0.2915 -0.4675 -0.05298 -0.3022 0.2213 0.1526 -0.1512
-0.308 -0.405 -0.3271 0.06494 0.204 -0.202 0.1051 -0.0707
-0.1362 -0.1425 0.1047 0.2067 -0.2172 -0.1189 0.1326 -0.1521
-0.2573 -0.4084 -0.6157 0.1398 0.4412 -0.1979 -0.3801 -0.5728

running_var f2 [32]
00000000: b837 7233 8536 a834 2d34 3a34 7b35 2233
00000010: 5734 ca35 6034 8334 8735 c833 b830 c130
00000020: 4b34 0e33 8632 bf37 2d34 8d34 fe34 2833
00000030: f431 9f33 9136 7830 cb34 5334 4635 3a34
0.4824 0.2327 0.4075 0.291 0.261 0.2642 0.3425 0.2229
0.2712 0.3618 0.2734 0.282 0.3455 0.2432 0.1475 0.1486
0.2683 0.2205 0.2039 0.4841 0.261 0.2844 0.312 0.2236
0.186 0.2382 0.4104 0.1396 0.2996 0.2703 0.3296 0.2642

weight f2 [16, 16, 1, 1]
00000000: b6a5 1531 5a32 d131 b4af 10ab d130 0a32
00000010: 5ab0 e1ae b2b3 9634 7eb4 86a9 36b3 c1ad
00000020: e324 75b1 7b31 94b3 70af cbb4 3ab2 14a5
00000030: 80b0 88b0 e6ae 5fb2 aa2b a92e 7399 00ab
00000040: cdb2 0bb2 dab3 e1a4 30a0 7e35 46ad c4ad
00000050: 11b4 b6ac 6fae 4c32 32a1 c6ae 14b0 e931
00000060: 78a5 7830 5bb4 14b1 dbac 9034 c934 9db2
00000070: 8eb1 3fb4 e230 1f2a e3a9 1022 f133 e42e
00000080: c6b1 fe28 0135 2430 02b0 e9b0 d0ae ae30
00000090: 2e2f 36b1 0535 1d32 9faf b8b3 c931 69aa
000000a0: 9ab3 35a9 672e 722f 362f cb2e 0934 5134
000000b0: 1eaf 911f d99a 6da8 0f33 81ad 1027 7c34
000000c0: ccae 8332 eea9 43a6 5934 bcb2 902f 5d2b
000000d0: f6ae 21b0 b735 f0b2 35b1 24ac 9fb5 a9a6
000000e0: aa2d 43aa 27b2 ccae 33a3 b5af 5d2a 9335
000000f0: b7b3 c6b0 c6b1 c3ac 9cb2 f1a6 3d25 f931
00000100: ec30 0aad 5ba9 5fb1 2a2a fcb1 1ba8 8234
00000110: ab24 2836 18b0 e130 771e 6c2a 5dae 56b3
00000120: 2e29 ba30 1cab 94ae 1f34 a82b deb4 2eb0
00000130: 9132 24b4 bcb3 13af e533 71aa 8435 b92c
00000140: 07a6 e9a3 0bad 0334 63b5 55b0 dd2b b3ac
00000150: 092d d6b2 d4a8 12b2 6534 9eb4 86ac e2a9
00000160: 7230 bb31 71ac 9924 592a 4fb0 aa26 a334
00000170: 61ae 21b4 dd32 8b31 c434 7c32 57a6 c8ae
00000180: 59b2 1937 3ea8 55a2 012c 5b2f 0f2f 492c
00000190: 35aa f0b2 00b5 d3af 66af 08b2 b530 fbae
000001a0: aaab c2b1 51b1 bcac d1b4 e8b1 4d34 0bad
000001b0: 71ac ba32 e130 8da6 1e9a 60b0 c8b0 e62c
000001c0: d22f b426 282c 7c28 1d30 db2e d0b1 3e2d
000001d0: b034 b432 0ca2 52b0 b8b0 55b3 eab0 f2a9
000001e0: 1035 8a2f 0aae b5ac df30 f72d 0433 1cb0
000001f0: 53b1 5b2f 3928 a6b0 f9b4 a8af 3d34 42af
-0.02231 0.1588 0.1985 0.1818 -0.12036 -0.05518 0.1505 0.1887
-0.136 -0.1075 -0.2405 0.2866 -0.2808 -0.04315 -0.2253 -0.0899
0.01909 -0.1705 0.1713 -0.2368 -0.1162 -0.2996 -0.1946 -0.01984
-0.1406 -0.1416 -0.1078 -0.1991 0.05988 0.10406 -0.00266 -0.0547
-0.2125 -0.1888 -0.2454 -0.01906 -0.00818 0.3433 -0.0824 -0.0901
-0.2542 -0.0736 -0.1005 0.1968 -0.01015 -0.10583 -0.1274 0.1847
-0.02136 0.1396 -0.2722 -0.1587 -0.07587 0.2852 0.299 -0.2067
-0.1736 -0.2654 0.1526 0.04782 -0.046 0.01184 0.2482 0.10767
-0.1804 0.039 0.3127 0.1294 -0.1252 -0.1534 -0.10645 0.1462
0.1122 -0.1628 0.3137 0.191 -0.1191 -0.2412 0.1808 -0.05008
-0.2375 -0.04068 0.10004 0.11633 0.1127 0.10614 0.2522 0.2698
-0.1112 0.00739 -0.003344 -0.03458 0.2206 -0.086 0.02759 0.2803
-0.1062 0.2035 -0.04633 -0.02446 0.2717 -0.2104 0.11816 0.05753
-0.10876 -0.129 0.3572 -0.2168 -0.1627 -0.0647 -0.3513 -0.02602
0.0885 -0.04892 -0.1923 -0.1062 -0.01406 -0.1204 0.0497 0.3484
-0.2411 -0.1492 -0.1804 -0.0744 -0.2065 -0.02711 0.02046 0.1866
0.1538 -0.07874 -0.04184 -0.1678 0.04816 -0.187 -0.03207 0.2817
0.01823 0.3848 -0.1279 0.1525 0.006313 0.05017 -0.0994 -0.2292
0.04047 0.1477 -0.05554 -0.1028 0.2576 0.0598 -0.3042 -0.1306
0.2052 -0.2588 -0.2417 -0.11053 0.2467 -0.05032 0.3447 0.0738
-0.02354 -0.01545 -0.0788 0.2507 -0.3367 -0.1354 0.06143 -0.0734
0.0787 -0.2136 -0.03772 -0.1897 0.2747 -0.2886 -0.0707 -0.04596
0.1389 0.1791 -0.0694 0.01796 0.0496 -0.1346 0.02603 0.2898
-0.0997 -0.258 0.2145 0.1732 0.2979 0.2026 -0.02477 -0.10596
-0.1984 0.4436 -0.03314 -0.01237 0.06256 0.1149 0.1103 0.06696
-0.0485 -0.2168 -0.3125 -0.12225 -0.1156 -0.1885 0.1471 -0.1091
-0.05988 -0.1799 -0.1661 -0.074 -0.301 -0.1846 0.2688 -0.0788
-0.0694 0.2102 0.1525 -0.02559 -0.002987 -0.1367 -0.1494 0.07654
0.1222 0.02618 0.06494 0.03503 0.1285 0.1071 -0.1816 0.0819
0.293 0.2095 -0.01181 -0.135 -0.1475 -0.2291 -0.1536 -0.04645
0.3164 0.1178 -0.09436 -0.07355 0.1522 0.0932 0.2192 -0.1284
-0.1664 0.1149 0.033 -0.1453 -0.3108 -0.1196 0.265 -0.1134

weight f2 [16]
00000000: 8b3b ee3b b13b a53b 9d3b d73b 843b 7a3c
00000010: 2c3c 113c cd3b d93b 743b c73b 5f3c 173c
0.943 0.991 0.9614 0.9556 0.9517 0.98 0.9395 1.119
1.043 1.017 0.975 0.981 0.9316 0.972 1.093 1.022

bias f2 [16]
00000000: 022c 0a31 9532 b82c 652f 3625 0b30 9b35
00000010: d42c 9431 442a be2b 71ad 0f33 3e31 ac2f
0.0626 0.1575 0.2057 0.0737 0.11554 0.02036 0.1263 0.3503
0.07544 0.1743 0.04895 0.0605 -0.085 0.2206 0.1638 0.1199

running_mean f2 [16]
00000000: 49ad 08b4 ecb0 74a8 0028 3e31 97aa 7cb1
00000010: 8829 6f29 9cb0 f82e 27ac 88af a12e aa9d
-0.0826 -0.252 -0.1538 -0.0348 0.03125 0.1638 -0.05148 -0.1714
0.0432 0.04245 -0.144 0.1089 -0.0649 -0.1177 0.1036 -0.00553

running_var f2 [16]
00000000: d532 fe2c f22e 2232 ce2d 272e 522f 8930
00000010: 2c30 1c30 432d 2a33 0330 2a2c 6e33 ce2d
0.2135 0.078 0.1085 0.1917 0.0907 0.0961 0.1144 0.1417
0.1304 0.1284 0.0822 0.2239 0.1254 0.06506 0.2322 0.0907

weight f2 [16, 16, 3, 3]
00000000: 392a 7228 83af 95ab 1730 6cac 8c2b 2828
00000010: d128 93a7 48a1 c128 6b18 c3ac aba5 d724
00000020: 5627 7a1e 7aad 7729 13b0 12ad 24a3 0d1c
00000030: daac dead 48a7 5a2b 95ad 102c 3c27 1ead
00000040: 40ac 5c2d 08aa fd2c af27 8daa 962a b325
00000050: 89aa a0a8 f5ae 3cad 5b1a d12d baac dea9
00000060: 1ca8 a2b5 6933 dfa5 1eab 64ac 81a8 cd20
00000070: b4a6 a7ab 79a9 282d bcae d51d d225 2d2e
00000080: cfaa e2a0 c42b 152d 8f2e 0229 3daa 9db0
00000090: d0a4 f9a8 f02c 971c efac 42a6 4124 89aa
000000a0: 7b9f d72c fbb2 b7aa 0427 19b1 9d99 f9ac
000000b0: 98ae 48a7 e231 b131 20a2 3e2d 1daa 9ca9
000000c0: a791 5f2e f428 a32f e62e 17b0 772e 1ba9
000000d0: c7af d920 30ae 9cab c12f 9d1c 4aa5 7731
000000e0: aeac c925 4b2a 58ad c72d 4427 4f2c 6928
000000f0: 9daf aaa8 14ae 3625 e62e 29a9 2eac 71a3
00000100: 46a6 14aa 7c20 66ad 38aa 6029 38aa 482d
00000110: 5f9b 38ab 2fa4 1da4 d6ab 6ea1 71ad df1b
00000120: 6cad 6bae 34a2 5c30 39ad 3728 0aad 67a7
00000130: 4d2d 4a28 96a9 3ca8 6b24 b0ab 02ac cba1
00000140: 7bb0 f7a7 9829 5caa 1aa8 312f 9131 631e
00000150: 7ca4 71ac 192a 6d2d 10a8 3613 c62d 721f
00000160: 4fad eca4 28ac e5a9 b1a2 38a6 9ea5 d928
00000170: fba4 24ad 83a4 d92e 28a9 1028 4cab 8aaa
00000180: 30a8 8a21 07ab fc2d 5a1c 3aaf 872e e9a4
00000190: c0a1 1f2c 6aac c52e 282d a7aa acae 2528
000001a0: b023 1bab ff2f 4aa1 d520 bbad bfac b198
000001b0: d82a b01d 8b24 f12a dc22 829f 25ac 98ae
000001c0: c626 eeac 6aa4 90a6 a926 c633 002d 5c27
000001d0: 06b0 71b1 7222 d59b 712c 5daf 2cb0 c19e
000001e0: d930 cc2a a1ad 39ac 53ad dbad 382c 02a6
000001f0: 2f2b f7b0 6cac 41b1 40a9 5eb0 d0a9 2a18
0.0486 0.03473 -0.1174 -0.05923 0.1278 -0.0691 0.05896 0.03247
0.03763 -0.02959 -0.010315 0.03714 0.002157 -0.0744 -0.02214 0.0189
0.02866 0.006325 -0.0856 0.0427 -0.1273 -0.0792 -0.01395 0.003956
-0.0758 -0.0917 -0.02844 0.05743 -0.0872 0.0635 0.02826 -0.07996
-0.0664 0.08374 -0.04712 0.07794 0.03001 -0.05118 0.05145 0.02226
-0.05106 -0.03613 -0.1087 -0.0818 0.003103 0.0909 -0.07385 -0.04584
-0.0321 -0.352 0.2316 -0.02293 -0.0556 -0.0686 -0.0352 0.00938
-0.02618 -0.05978 -0.04276 0.08057 -0.1052 0.005695 0.02274 0.0965
-0.0532 -0.00954 0.06067 0.0794 0.1025 0.03912 -0.04874 -0.1442
-0.0188 -0.03885 0.07715 0.004482 -0.0771 -0.02444 0.01662 -0.05106
-0.007305 0.0756 -0.2181 -0.05246 0.0274 -0.1593 -0.00274 -0.0777
-0.103 -0.02844 0.1838 0.1779 -0.01196 0.0819 -0.04776 -0.04382
-0.00069 0.09955 0.0387 0.1193 0.1078 -0.1278 0.101 -0.0399
-0.1215 0.00947 -0.0967 -0.05945 0.12115 0.004505 -0.02066 0.1708
-0.0731 0.0226 0.04916 -0.0835 0.0903 0.02838 0.0673 0.03445
-0.11896 -0.03644 -0.095 0.02036 0.1078 -0.0403 -0.0653 -0.014534
-0.0245 -0.0475 0.00876 -0.08435 -0.04858 0.042 -0.04858 0.0825
-0.0036 -0.0564 -0.01634 -0.01607 -0.06122 -0.010605 -0.085 0.003843
-0.0847 -0.1003 -0.012115 0.1362 -0.0816 0.03293 -0.07874 -0.02892
0.0828 0.0335 -0.04364 -0.03308 0.01726 -0.06006 -0.0626 -0.011314
-0.14 -0.03111 0.0437 -0.04968 -0.03204 0.11237 0.174 0.006237
-0.01752 -0.0694 0.04764 0.0848 -0.03174 0.0008802 0.0902 0.00727
-0.08295 -0.01923 -0.06494 -0.04605 -0.01307 -0.02429 -0.02194 0.03787
-0.01945 -0.0803 -0.01762 0.107 -0.04028 0.03174 -0.057 -0.0511
-0.0327 0.01082 -0.0549 0.0935 0.00425 -0.1129 0.102 -0.01918
-0.01123 0.0644 -0.069 0.1058 0.08057 -0.05197 -0.10425 0.03238
0.015015 -0.0555 0.12494 -0.01033 0.00944 -0.08954 -0.07416 -0.00229
0.05347 0.005554 0.01775 0.05423 0.0134 -0.00733 -0.06476 -0.103
0.02646 -0.077 -0.01724 -0.02563 0.02602 0.2429 0.0781 0.02875
-0.1257 -0.17 0.01259 -0.003824 0.0694 -0.11505 -0.1304 -0.006596
0.1515 0.0531 -0.08795 -0.066 -0.0832 -0.0915 0.0659 -0.02347
0.05612 -0.1552 -0.0691 -0.1642 -0.04102 -0.1365 -0.0454 0.002033
